python3 main.py --net vnncomp2023_benchmarks/benchmarks/collins_rul_cnn/onnx/NN_rul_small_window_20.onnx --spec vnncomp2023_benchmarks/benchmarks/collins_rul_cnn/vnnlib/robustness_2perturbations_delta5_epsilon10_w20.vnnlib
Restricted license - for non-production use only - expires 2025-11-24
ConvertModel(
  (Conv_conv_1): Conv2d(1, 5, kernel_size=(5, 1), stride=(1, 1))
  (Relu_relu_1): ReLU(inplace=True)
  (Conv_conv_2): Conv2d(5, 10, kernel_size=(5, 1), stride=(1, 1))
  (Relu_relu_2): ReLU(inplace=True)
  (Conv_conv_3): Conv2d(10, 5, kernel_size=(5, 1), stride=(1, 1))
  (Relu_relu_3): ReLU(inplace=True)
  (Conv_conv_4): Conv2d(5, 5, kernel_size=(3, 1), stride=(1, 1))
  (Relu_relu_4): ReLU(inplace=True)
  (Conv_fc_1): Conv2d(5, 100, kernel_size=(6, 20), stride=(1, 1))
  (Relu_relu_5): ReLU(inplace=True)
  (Dropout_dropout): Identity()
  (Conv_fc_2): Conv2d(100, 1, kernel_size=(1, 1), stride=(1, 1))
  (Flatten_fc_2_Flatten): Flatten()
)
INFO     17:26:43     [!] VNNLIB: 400 inputs, 1 outputs
INFO     17:26:43     [!] Input shape: (1, 1, 20, 20) (is_nhwc=False)
INFO     17:26:43     [!] Output shape: (1, 1)

[!] Current settings:
	- max_hidden_branches           : 5000
	- max_hidden_visited_branches   : 20000
	- use_attack                    : True
…
2024-02-06 17:27:54.759638183 [W:onnxruntime:, graph.cc:1283 Graph] Initializer fc_2_B appears in graph inputs and will not be treated as constant value/weight. This may prevent some of the graph optimizations, like const folding. Move it out of graph inputs if there is no need to override it, by either re-generating the model with latest exporter/converter or with the tool onnxruntime/tools/python/remove_initializer_from_input.py.
[W NNPACK.cpp:64] Could not initialize NNPACK! Reason: Unsupported hardware.

python3 main.py --net vnncomp2023_benchmarks/benchmarks/collins_rul_cnn/onnx/NN_rul_full_window_20.onnx --spec vnncomp2023_benchmarks/benchmarks/collins_rul_cnn/vnnlib/robustness_2perturbations_delta5_epsilon10_w20.vnnlib
Restricted license - for non-production use only - expires 2025-11-24
ConvertModel(
  (Conv_conv_1): Conv2d(1, 10, kernel_size=(5, 1), stride=(1, 1))
  (Relu_relu_1): ReLU(inplace=True)
  (Conv_conv_2): Conv2d(10, 20, kernel_size=(5, 1), stride=(1, 1))
  (Relu_relu_2): ReLU(inplace=True)
  (Conv_conv_3): Conv2d(20, 10, kernel_size=(5, 1), stride=(1, 1))
  (Relu_relu_3): ReLU(inplace=True)
  (Conv_conv_4): Conv2d(10, 5, kernel_size=(3, 1), stride=(1, 1))
  (Relu_relu_4): ReLU(inplace=True)
  (Conv_fc_1): Conv2d(5, 100, kernel_size=(6, 20), stride=(1, 1))
  (Relu_relu_5): ReLU(inplace=True)
  (Dropout_dropout): Identity()
  (Conv_fc_2): Conv2d(100, 1, kernel_size=(1, 1), stride=(1, 1))
  (Flatten_fc_2_Flatten): Flatten()
)
INFO     17:27:57     [!] VNNLIB: 400 inputs, 1 outputs
INFO     17:27:57     [!] Input shape: (1, 1, 20, 20) (is_nhwc=False)
INFO     17:27:57     [!] Output shape: (1, 1)

[!] Current settings:
	- max_hidden_branches           : 5000
	- max_hidden_visited_branches   : 20000
	- use_attack                    : True
…
2024-02-06 17:29:08.177230459 [W:onnxruntime:, graph.cc:1283 Graph] Initializer fc_2_B appears in graph inputs and will not be treated as constant value/weight. This may prevent some of the graph optimizations, like const folding. Move it out of graph inputs if there is no need to override it, by either re-generating the model with latest exporter/converter or with the tool onnxruntime/tools/python/remove_initializer_from_input.py.
[W NNPACK.cpp:64] Could not initialize NNPACK! Reason: Unsupported hardware.

python3 main.py --net vnncomp2023_benchmarks/benchmarks/collins_rul_cnn/onnx/NN_rul_full_window_40.onnx --spec vnncomp2023_benchmarks/benchmarks/collins_rul_cnn/vnnlib/robustness_2perturbations_delta5_epsilon10_w40.vnnlib
Restricted license - for non-production use only - expires 2025-11-24
ConvertModel(
  (Conv_conv_1): Conv2d(1, 10, kernel_size=(5, 1), stride=(1, 1))
  (Relu_relu_1): ReLU(inplace=True)
  (Conv_conv_2): Conv2d(10, 20, kernel_size=(5, 1), stride=(1, 1))
  (Relu_relu_2): ReLU(inplace=True)
  (Conv_conv_3): Conv2d(20, 10, kernel_size=(5, 1), stride=(1, 1))
  (Relu_relu_3): ReLU(inplace=True)
  (Conv_conv_4): Conv2d(10, 5, kernel_size=(3, 1), stride=(1, 1))
  (Relu_relu_4): ReLU(inplace=True)
  (Conv_fc_1): Conv2d(5, 100, kernel_size=(26, 20), stride=(1, 1))
  (Relu_relu_5): ReLU(inplace=True)
  (Dropout_dropout): Identity()
  (Conv_fc_2): Conv2d(100, 1, kernel_size=(1, 1), stride=(1, 1))
  (Flatten_fc_2_Flatten): Flatten()
)
INFO     17:29:11     [!] VNNLIB: 800 inputs, 1 outputs
INFO     17:29:11     [!] Input shape: (1, 1, 40, 20) (is_nhwc=False)
INFO     17:29:11     [!] Output shape: (1, 1)

[!] Current settings:
	- max_hidden_branches           : 5000
	- max_hidden_visited_branches   : 20000
	- use_attack                    : True
…
